Loading data...
Found 616 files belonging to 2 classes.
Using 493 files for training.
Found 616 files belonging to 2 classes.
Using 123 files for validation.

Classes found: ['metal', 'silicate']

Building the Optimized Model for Balanced Dataset...
Model: "functional_1"
┏━━━━━━━━━━━━━━━━━━━━━━━━━━━━━━━━━┳━━━━━━━━━━━━━━━━━━━━━━━━┳━━━━━━━━━━━━━━━┓
┃ Layer (type)                    ┃ Output Shape           ┃       Param # ┃
┡━━━━━━━━━━━━━━━━━━━━━━━━━━━━━━━━━╇━━━━━━━━━━━━━━━━━━━━━━━━╇━━━━━━━━━━━━━━━┩
│ input_layer_3 (InputLayer)      │ (None, 224, 224, 3)    │             0 │
├─────────────────────────────────┼────────────────────────┼───────────────┤
│ true_divide (TrueDivide)        │ (None, 224, 224, 3)    │             0 │
├─────────────────────────────────┼────────────────────────┼───────────────┤
│ subtract (Subtract)             │ (None, 224, 224, 3)    │             0 │
├─────────────────────────────────┼────────────────────────┼───────────────┤
│ inception_v3 (Functional)       │ (None, 5, 5, 2048)     │    21,802,784 │
├─────────────────────────────────┼────────────────────────┼───────────────┤
│ global_average_pooling2d_1      │ (None, 2048)           │             0 │
│ (GlobalAveragePooling2D)        │                        │               │
├─────────────────────────────────┼────────────────────────┼───────────────┤
│ dense_3 (Dense)                 │ (None, 1024)           │     2,098,176 │
├─────────────────────────────────┼────────────────────────┼───────────────┤
│ batch_normalization_190         │ (None, 1024)           │         4,096 │
│ (BatchNormalization)            │                        │               │
├─────────────────────────────────┼────────────────────────┼───────────────┤
│ dropout_2 (Dropout)             │ (None, 1024)           │             0 │
├─────────────────────────────────┼────────────────────────┼───────────────┤
│ dense_4 (Dense)                 │ (None, 512)            │       524,800 │
├─────────────────────────────────┼────────────────────────┼───────────────┤
│ batch_normalization_191         │ (None, 512)            │         2,048 │
│ (BatchNormalization)            │                        │               │
├─────────────────────────────────┼────────────────────────┼───────────────┤
│ dropout_3 (Dropout)             │ (None, 512)            │             0 │
├─────────────────────────────────┼────────────────────────┼───────────────┤
│ dense_5 (Dense)                 │ (None, 1)              │           513 │
└─────────────────────────────────┴────────────────────────┴───────────────┘
 Total params: 24,432,417 (93.20 MB)
 Trainable params: 2,626,561 (10.02 MB)
 Non-trainable params: 21,805,856 (83.18 MB)

--- Starting Model Training (Phase 1: Transfer Learning) ---
Epoch 1/120
16/16 ━━━━━━━━━━━━━━━━━━━━ 45s 2s/step - accuracy: 0.3820 - loss: 0.8334 - val_accuracy: 0.7154 - val_loss: 0.6338 - learning_rate: 0.0010
…
